{"backend": "theano", "config": [{"config": {"name": "dense_195", "trainable": true, "bias_regularizer": null, "bias_initializer": {"config": {}, "class_name": "Zeros"}, "units": 60, "kernel_constraint": null, "batch_input_shape": [null, 79], "kernel_initializer": {"config": {"seed": null, "scale": 1.0, "distribution": "uniform", "mode": "fan_avg"}, "class_name": "VarianceScaling"}, "dtype": "float32", "use_bias": true, "activity_regularizer": null, "kernel_regularizer": null, "activation": "relu", "bias_constraint": null}, "class_name": "Dense"}, {"config": {"name": "dropout_146", "rate": 0.6, "trainable": true}, "class_name": "Dropout"}, {"config": {"name": "dense_196", "trainable": true, "bias_regularizer": null, "bias_initializer": {"config": {}, "class_name": "Zeros"}, "units": 60, "kernel_constraint": null, "activation": "relu", "kernel_initializer": {"config": {"seed": null, "scale": 1.0, "distribution": "uniform", "mode": "fan_avg"}, "class_name": "VarianceScaling"}, "use_bias": true, "activity_regularizer": null, "kernel_regularizer": null, "bias_constraint": null}, "class_name": "Dense"}, {"config": {"name": "dropout_147", "rate": 0.6, "trainable": true}, "class_name": "Dropout"}, {"config": {"name": "dense_197", "trainable": true, "bias_regularizer": null, "bias_initializer": {"config": {}, "class_name": "Zeros"}, "units": 60, "kernel_constraint": null, "activation": "relu", "kernel_initializer": {"config": {"seed": null, "scale": 1.0, "distribution": "uniform", "mode": "fan_avg"}, "class_name": "VarianceScaling"}, "use_bias": true, "activity_regularizer": null, "kernel_regularizer": null, "bias_constraint": null}, "class_name": "Dense"}, {"config": {"name": "dropout_148", "rate": 0.6, "trainable": true}, "class_name": "Dropout"}, {"config": {"name": "dense_198", "trainable": true, "bias_regularizer": null, "bias_initializer": {"config": {}, "class_name": "Zeros"}, "units": 60, "kernel_constraint": null, "activation": "relu", "kernel_initializer": {"config": {"seed": null, "scale": 1.0, "distribution": "uniform", "mode": "fan_avg"}, "class_name": "VarianceScaling"}, "use_bias": true, "activity_regularizer": null, "kernel_regularizer": null, "bias_constraint": null}, "class_name": "Dense"}, {"config": {"name": "dropout_149", "rate": 0.6, "trainable": true}, "class_name": "Dropout"}, {"config": {"name": "dense_199", "trainable": true, "bias_regularizer": null, "bias_initializer": {"config": {}, "class_name": "Zeros"}, "units": 60, "kernel_constraint": null, "activation": "relu", "kernel_initializer": {"config": {"seed": null, "scale": 1.0, "distribution": "uniform", "mode": "fan_avg"}, "class_name": "VarianceScaling"}, "use_bias": true, "activity_regularizer": null, "kernel_regularizer": null, "bias_constraint": null}, "class_name": "Dense"}, {"config": {"name": "dropout_150", "rate": 0.6, "trainable": true}, "class_name": "Dropout"}, {"config": {"name": "dense_200", "trainable": true, "bias_regularizer": null, "bias_initializer": {"config": {}, "class_name": "Zeros"}, "units": 5, "kernel_constraint": null, "activation": "softmax", "kernel_initializer": {"config": {"seed": null, "scale": 1.0, "distribution": "uniform", "mode": "fan_avg"}, "class_name": "VarianceScaling"}, "use_bias": true, "activity_regularizer": null, "kernel_regularizer": null, "bias_constraint": null}, "class_name": "Dense"}], "keras_version": "2.0.3", "class_name": "Sequential"}