{"backend": "theano", "config": [{"config": {"name": "dense_56", "trainable": true, "bias_regularizer": null, "bias_initializer": {"config": {}, "class_name": "Zeros"}, "units": 40, "kernel_constraint": null, "batch_input_shape": [null, 79], "kernel_initializer": {"config": {"seed": null, "scale": 1.0, "distribution": "uniform", "mode": "fan_avg"}, "class_name": "VarianceScaling"}, "dtype": "float32", "use_bias": true, "activity_regularizer": null, "kernel_regularizer": null, "activation": "relu", "bias_constraint": null}, "class_name": "Dense"}, {"config": {"name": "dropout_39", "rate": 0.4, "trainable": true}, "class_name": "Dropout"}, {"config": {"name": "dense_57", "trainable": true, "bias_regularizer": null, "bias_initializer": {"config": {}, "class_name": "Zeros"}, "units": 40, "kernel_constraint": null, "activation": "relu", "kernel_initializer": {"config": {"seed": null, "scale": 1.0, "distribution": "uniform", "mode": "fan_avg"}, "class_name": "VarianceScaling"}, "use_bias": true, "activity_regularizer": null, "kernel_regularizer": null, "bias_constraint": null}, "class_name": "Dense"}, {"config": {"name": "dropout_40", "rate": 0.4, "trainable": true}, "class_name": "Dropout"}, {"config": {"name": "dense_58", "trainable": true, "bias_regularizer": null, "bias_initializer": {"config": {}, "class_name": "Zeros"}, "units": 40, "kernel_constraint": null, "activation": "relu", "kernel_initializer": {"config": {"seed": null, "scale": 1.0, "distribution": "uniform", "mode": "fan_avg"}, "class_name": "VarianceScaling"}, "use_bias": true, "activity_regularizer": null, "kernel_regularizer": null, "bias_constraint": null}, "class_name": "Dense"}, {"config": {"name": "dropout_41", "rate": 0.4, "trainable": true}, "class_name": "Dropout"}, {"config": {"name": "dense_59", "trainable": true, "bias_regularizer": null, "bias_initializer": {"config": {}, "class_name": "Zeros"}, "units": 40, "kernel_constraint": null, "activation": "relu", "kernel_initializer": {"config": {"seed": null, "scale": 1.0, "distribution": "uniform", "mode": "fan_avg"}, "class_name": "VarianceScaling"}, "use_bias": true, "activity_regularizer": null, "kernel_regularizer": null, "bias_constraint": null}, "class_name": "Dense"}, {"config": {"name": "dropout_42", "rate": 0.4, "trainable": true}, "class_name": "Dropout"}, {"config": {"name": "dense_60", "trainable": true, "bias_regularizer": null, "bias_initializer": {"config": {}, "class_name": "Zeros"}, "units": 5, "kernel_constraint": null, "activation": "softmax", "kernel_initializer": {"config": {"seed": null, "scale": 1.0, "distribution": "uniform", "mode": "fan_avg"}, "class_name": "VarianceScaling"}, "use_bias": true, "activity_regularizer": null, "kernel_regularizer": null, "bias_constraint": null}, "class_name": "Dense"}], "keras_version": "2.0.3", "class_name": "Sequential"}