{"backend": "theano", "config": [{"config": {"trainable": true, "activation": "relu", "use_bias": true, "kernel_regularizer": null, "name": "dense_251", "dtype": "float32", "kernel_constraint": null, "bias_constraint": null, "kernel_initializer": {"config": {"distribution": "uniform", "mode": "fan_avg", "seed": null, "scale": 1.0}, "class_name": "VarianceScaling"}, "bias_initializer": {"config": {}, "class_name": "Zeros"}, "bias_regularizer": null, "batch_input_shape": [null, 79], "units": 30, "activity_regularizer": null}, "class_name": "Dense"}, {"config": {"trainable": true, "name": "dropout_185", "rate": 0.4}, "class_name": "Dropout"}, {"config": {"trainable": true, "activation": "relu", "use_bias": true, "kernel_regularizer": null, "name": "dense_252", "kernel_constraint": null, "bias_constraint": null, "kernel_initializer": {"config": {"distribution": "uniform", "mode": "fan_avg", "seed": null, "scale": 1.0}, "class_name": "VarianceScaling"}, "bias_initializer": {"config": {}, "class_name": "Zeros"}, "bias_regularizer": null, "units": 30, "activity_regularizer": null}, "class_name": "Dense"}, {"config": {"trainable": true, "name": "dropout_186", "rate": 0.4}, "class_name": "Dropout"}, {"config": {"trainable": true, "activation": "relu", "use_bias": true, "kernel_regularizer": null, "name": "dense_253", "kernel_constraint": null, "bias_constraint": null, "kernel_initializer": {"config": {"distribution": "uniform", "mode": "fan_avg", "seed": null, "scale": 1.0}, "class_name": "VarianceScaling"}, "bias_initializer": {"config": {}, "class_name": "Zeros"}, "bias_regularizer": null, "units": 30, "activity_regularizer": null}, "class_name": "Dense"}, {"config": {"trainable": true, "name": "dropout_187", "rate": 0.4}, "class_name": "Dropout"}, {"config": {"trainable": true, "activation": "relu", "use_bias": true, "kernel_regularizer": null, "name": "dense_254", "kernel_constraint": null, "bias_constraint": null, "kernel_initializer": {"config": {"distribution": "uniform", "mode": "fan_avg", "seed": null, "scale": 1.0}, "class_name": "VarianceScaling"}, "bias_initializer": {"config": {}, "class_name": "Zeros"}, "bias_regularizer": null, "units": 30, "activity_regularizer": null}, "class_name": "Dense"}, {"config": {"trainable": true, "name": "dropout_188", "rate": 0.4}, "class_name": "Dropout"}, {"config": {"trainable": true, "activation": "softmax", "use_bias": true, "kernel_regularizer": null, "name": "dense_255", "kernel_constraint": null, "bias_constraint": null, "kernel_initializer": {"config": {"distribution": "uniform", "mode": "fan_avg", "seed": null, "scale": 1.0}, "class_name": "VarianceScaling"}, "bias_initializer": {"config": {}, "class_name": "Zeros"}, "bias_regularizer": null, "units": 5, "activity_regularizer": null}, "class_name": "Dense"}], "class_name": "Sequential", "keras_version": "2.0.3"}