{"config": [{"config": {"units": 30, "name": "dense_251", "bias_initializer": {"config": {}, "class_name": "Zeros"}, "kernel_initializer": {"config": {"mode": "fan_avg", "distribution": "uniform", "seed": null, "scale": 1.0}, "class_name": "VarianceScaling"}, "bias_constraint": null, "use_bias": true, "activity_regularizer": null, "batch_input_shape": [null, 79], "bias_regularizer": null, "activation": "relu", "kernel_regularizer": null, "trainable": true, "dtype": "float32", "kernel_constraint": null}, "class_name": "Dense"}, {"config": {"trainable": true, "name": "dropout_185", "rate": 0.6}, "class_name": "Dropout"}, {"config": {"units": 30, "name": "dense_252", "bias_initializer": {"config": {}, "class_name": "Zeros"}, "kernel_initializer": {"config": {"mode": "fan_avg", "distribution": "uniform", "seed": null, "scale": 1.0}, "class_name": "VarianceScaling"}, "bias_constraint": null, "use_bias": true, "activity_regularizer": null, "bias_regularizer": null, "activation": "relu", "kernel_regularizer": null, "trainable": true, "kernel_constraint": null}, "class_name": "Dense"}, {"config": {"trainable": true, "name": "dropout_186", "rate": 0.6}, "class_name": "Dropout"}, {"config": {"units": 30, "name": "dense_253", "bias_initializer": {"config": {}, "class_name": "Zeros"}, "kernel_initializer": {"config": {"mode": "fan_avg", "distribution": "uniform", "seed": null, "scale": 1.0}, "class_name": "VarianceScaling"}, "bias_constraint": null, "use_bias": true, "activity_regularizer": null, "bias_regularizer": null, "activation": "relu", "kernel_regularizer": null, "trainable": true, "kernel_constraint": null}, "class_name": "Dense"}, {"config": {"trainable": true, "name": "dropout_187", "rate": 0.6}, "class_name": "Dropout"}, {"config": {"units": 30, "name": "dense_254", "bias_initializer": {"config": {}, "class_name": "Zeros"}, "kernel_initializer": {"config": {"mode": "fan_avg", "distribution": "uniform", "seed": null, "scale": 1.0}, "class_name": "VarianceScaling"}, "bias_constraint": null, "use_bias": true, "activity_regularizer": null, "bias_regularizer": null, "activation": "relu", "kernel_regularizer": null, "trainable": true, "kernel_constraint": null}, "class_name": "Dense"}, {"config": {"trainable": true, "name": "dropout_188", "rate": 0.6}, "class_name": "Dropout"}, {"config": {"units": 5, "name": "dense_255", "bias_initializer": {"config": {}, "class_name": "Zeros"}, "kernel_initializer": {"config": {"mode": "fan_avg", "distribution": "uniform", "seed": null, "scale": 1.0}, "class_name": "VarianceScaling"}, "bias_constraint": null, "use_bias": true, "activity_regularizer": null, "bias_regularizer": null, "activation": "softmax", "kernel_regularizer": null, "trainable": true, "kernel_constraint": null}, "class_name": "Dense"}], "backend": "theano", "class_name": "Sequential", "keras_version": "2.0.3"}