{"class_name": "Sequential", "config": [{"class_name": "Dense", "config": {"name": "dense_77", "bias_initializer": {"class_name": "Zeros", "config": {}}, "kernel_initializer": {"class_name": "VarianceScaling", "config": {"distribution": "uniform", "mode": "fan_avg", "seed": null, "scale": 1.0}}, "trainable": true, "bias_regularizer": null, "batch_input_shape": [null, 79], "kernel_constraint": null, "dtype": "float32", "use_bias": true, "kernel_regularizer": null, "units": 30, "activity_regularizer": null, "bias_constraint": null, "activation": "relu"}}, {"class_name": "Dropout", "config": {"trainable": true, "name": "dropout_56", "rate": 0.2}}, {"class_name": "Dense", "config": {"name": "dense_78", "bias_initializer": {"class_name": "Zeros", "config": {}}, "trainable": true, "bias_regularizer": null, "kernel_constraint": null, "kernel_initializer": {"class_name": "VarianceScaling", "config": {"distribution": "uniform", "mode": "fan_avg", "seed": null, "scale": 1.0}}, "use_bias": true, "kernel_regularizer": null, "units": 30, "activity_regularizer": null, "bias_constraint": null, "activation": "relu"}}, {"class_name": "Dropout", "config": {"trainable": true, "name": "dropout_57", "rate": 0.2}}, {"class_name": "Dense", "config": {"name": "dense_79", "bias_initializer": {"class_name": "Zeros", "config": {}}, "trainable": true, "bias_regularizer": null, "kernel_constraint": null, "kernel_initializer": {"class_name": "VarianceScaling", "config": {"distribution": "uniform", "mode": "fan_avg", "seed": null, "scale": 1.0}}, "use_bias": true, "kernel_regularizer": null, "units": 30, "activity_regularizer": null, "bias_constraint": null, "activation": "relu"}}, {"class_name": "Dropout", "config": {"trainable": true, "name": "dropout_58", "rate": 0.2}}, {"class_name": "Dense", "config": {"name": "dense_80", "bias_initializer": {"class_name": "Zeros", "config": {}}, "trainable": true, "bias_regularizer": null, "kernel_constraint": null, "kernel_initializer": {"class_name": "VarianceScaling", "config": {"distribution": "uniform", "mode": "fan_avg", "seed": null, "scale": 1.0}}, "use_bias": true, "kernel_regularizer": null, "units": 30, "activity_regularizer": null, "bias_constraint": null, "activation": "relu"}}, {"class_name": "Dropout", "config": {"trainable": true, "name": "dropout_59", "rate": 0.2}}, {"class_name": "Dense", "config": {"name": "dense_81", "bias_initializer": {"class_name": "Zeros", "config": {}}, "trainable": true, "bias_regularizer": null, "kernel_constraint": null, "kernel_initializer": {"class_name": "VarianceScaling", "config": {"distribution": "uniform", "mode": "fan_avg", "seed": null, "scale": 1.0}}, "use_bias": true, "kernel_regularizer": null, "units": 30, "activity_regularizer": null, "bias_constraint": null, "activation": "relu"}}, {"class_name": "Dropout", "config": {"trainable": true, "name": "dropout_60", "rate": 0.2}}, {"class_name": "Dense", "config": {"name": "dense_82", "bias_initializer": {"class_name": "Zeros", "config": {}}, "trainable": true, "bias_regularizer": null, "kernel_constraint": null, "kernel_initializer": {"class_name": "VarianceScaling", "config": {"distribution": "uniform", "mode": "fan_avg", "seed": null, "scale": 1.0}}, "use_bias": true, "kernel_regularizer": null, "units": 1, "activity_regularizer": null, "bias_constraint": null, "activation": "sigmoid"}}], "backend": "theano", "keras_version": "2.0.3"}